SpikingJelly模板/resume/checkpoint_max.pth (torch, 95715 bytes, 3 tensors)

1.weight f4 [10, 784]
000000 47 20 0d 3d e1 0a ea bc 0e 28 db bc 5a 84 e5 bc
       0.03445461 -0.02856964 -0.026752498 -0.028017212
000010 80 f4 b2 bb c8 2e 12 bd 1a 22 db bc 59 0d 02 3d
       -0.0054612756 -0.035689145 -0.02674966 0.03175101
000020 64 0c cd bb a6 05 25 bc ac 86 82 bc 9a 3b c1 3c
       -0.0062575806 -0.0100721475 -0.015933357 0.02358799
000030 f2 81 95 3c f8 79 89 3b a5 d3 9f bc 00 75 61 3b
       0.01825044 0.004195448 -0.0195101 0.0034402013
000040 7e 1e 08 bd 84 25 00 3c d4 9c 9c bb 58 2a 91 3c
       -0.033232205 0.007821444 -0.0047794376 0.017720386
000050 aa 76 bf 3c 7c d5 d2 3c 8d 67 0e bd 28 79 86 3b
       0.023372013 0.025736563 -0.034766722 0.0041037984
000060 bc b5 e1 bc a0 1a 04 bc b8 dc 2d 3c 06 81 40 bc
       -0.027552478 -0.0080629885 0.0106117055 -0.011749512
000070 f8 ac 3b bc 01 0e 0f 3d 96 2d dc 3c 9c 01 9d bb
       -0.011454813 0.034925465 0.026877206 -0.0047914516
000080 e0 77 03 3c a0 d5 34 bc 3a 5e a4 3c c7 79 0a 3d
       0.008024186 -0.01103726 0.020064462 0.033807542
000090 08 33 88 3c 00 fd 5d bb 6a 33 a1 bc 72 20 d7 3c
       0.016625896 -0.0033872724 -0.019677836 0.026260588
0000a0 50 0c 53 3b 10 ab 8d bc 72 f3 02 bc a4 8a 4b 3c
       0.0032203384 -0.017293483 -0.007992612 0.012423191
0000b0 18 36 3e 3c fe 74 b9 bc 5e ec e4 3c 78 7e b7 bb
       0.011609577 -0.022638794 0.02794474 -0.005599793
0000c0 0f b5 01 3d e1 df fc bc 46 6f 0c bd 8c 71 b8 3c
       0.03166681 -0.030868473 -0.034285806 0.02251508
0000d0 dc 2e 45 bc 50 d8 2c 3c 58 32 86 bb 0a 01 db bc
       -0.012035098 0.01054962 -0.004095357 -0.026733894
0000e0 04 cd 5b 3c 88 e6 bd 3c ea 60 df bc 30 38 77 bb
       0.013415579 0.023181215 -0.027267892 -0.00377227
0000f0 c8 b1 eb 3b 60 a3 b7 3c 78 8e 8a 3c 02 f1 bb 3c
       0.007192824 0.02241677 0.016913638 0.02294207
000100 3c 0c 04 3c 50 1f b0 3b 6a ea e1 3c 40 81 92 ba
       0.0080595575 0.0053748265 0.027577598 -0.0011177436
000110 d3 48 05 3d 2b 28 00 3d d8 b6 3d 3c f8 65 80 3b
       0.032540154 0.031288307 0.011579238 0.0039184056
000120 bc e5 c4 bc 60 cf cf 3c 30 03 b9 bb 22 b9 e4 3c
       -0.024035327 0.025367439 -0.005646132 0.02792031
000130 b8 9f 2e bc b8 44 f0 3b aa b6 75 bc a0 b7 7a bb
       -0.010658197 0.0073324107 -0.014997164 -0.0038256422
000140 4a 47 a8 3c 5a 6a b3 3c 80 be c6 bb b0 a5 fe bb
       0.020541806 0.021901298 -0.00606519 -0.0077712163
000150 1a b7 b0 3c 40 6e 9a 3b 58 cb 0e bc e0 71 4a 3c
       0.021571685 0.00471285 -0.008715473 0.0123562515
000160 1a ea cb bc f0 b6 d7 bb 00 95 6f 39 e0 66 08 3b
       -0.024891902 -0.006583087 0.00022848323 0.0020813271
000170 2a fb 52 bc 08 40 a9 bc 36 7c b1 3b 15 62 39 3c
       -0.012877265 -0.020660415 0.0054164184 0.0113148885
000180 da 23 06 bd e0 32 9e 3c 5a 7a 0e bd ca 3a bb bc
       -0.032749034 0.019311368 -0.034784652 -0.022855181
000190 fc e1 95 3c 77 8f 03 bd 1c 93 f0 bc 48 97 c2 3b
       0.018296234 -0.03211924 -0.029367022 0.0059384443
0001a0 f8 71 9b bb f6 3c a5 3c 58 93 a2 3b 93 a6 98 bc
       -0.0047438107 0.02017067 0.0049614124 -0.018634116
0001b0 00 c7 90 3c f0 33 76 3c 27 f7 8b bc 50 54 b6 3c
       0.017673016 0.015027031 -0.017085625 0.022257
0001c0 45 75 07 bd 14 1a f0 bb dc fb 64 3c e0 8b 82 3a
       -0.03307082 -0.0073273275 0.013976064 0.0009959899
0001d0 81 2c 09 3d 70 dc ce 3b a0 40 96 bc 5a 9c f4 bc
       0.033489708 0.0063128993 -0.018341362 -0.02985971
0001e0 5c c7 8b bc cb c3 02 bd 17 14 bf 3c 66 bf ec bc
       -0.017062835 -0.031925004 0.02332501 -0.02889986
0001f0 9e a5 94 bc c2 1b 32 3c 72 af 0a bc 2c 02 a3 bc
       -0.018145379 0.010870876 -0.008464681 -0.019898497
000200 b7 ca d7 bb 7a d4 f8 bc 9e f5 e1 3c 88 49 f5 3a
       -0.006585445 -0.030374754 0.02758294 0.0018713931
000210 29 c8 f2 3a 35 e4 92 3c 51 c3 85 bc 6b fd ae 3c
       0.0018522787 0.017931083 -0.016328486 0.021361073
000220 8e 2b b7 bc f8 c6 ae bb 3c af 4e bc 6c 17 df bc
       -0.022359636 -0.0053337775 -0.012615021 -0.027232848
000230 5e 95 b0 3c 20 ba 9a ba 0e 3b ea 3c 20 bc b9 3a
       0.021555599 -0.0011804737 0.028592613 0.0014170446
000240 8f e3 04 bd 3e 0d fa bc 26 7e df 3c fe 36 c4 3c
       -0.03244358 -0.030523892 0.027281832 0.023952004
000250 ae 4b 08 3c 34 c0 cd bc 68 41 d0 bc 42 67 8e 3c
       0.008318825 -0.025116064 -0.025421813 0.017383222
000260 99 ab e5 bc 12 a1 be bc 5a a4 07 3c f2 fb 85 bb
       -0.028035926 -0.023270164 0.008278931 -0.004088872
000270 d5 0b b1 bc 8a 66 31 bc 72 f8 c0 bc c4 87 db ba
       -0.021612087 -0.01082767 -0.023555968 -0.0016748835
000280 55 0b 35 bc 59 d7 e2 bc c8 ca c4 bb c9 c1 db 3b
       -0.011050065 -0.027690576 -0.0060056187 0.0067064506
000290 30 0c b6 3b ba 66 f3 bc 4f f9 0a 3d 08 fb e1 bc
       0.005555652 -0.02971207 0.033929165 -0.027585521
0002a0 6e 46 bc bc 45 5c 0f 3d 72 9d dc 3c 6c d6 94 3c
       -0.022982802 0.035000104 0.026930545 0.01816865
0002b0 b8 0d df bb 2a 34 e4 3c 56 86 dd 3c 96 cb 0d 3d
       -0.0068070553 0.027856905 0.027041595 0.034617983
0002c0 24 6c a6 3c 7a 3b c7 bc f2 f0 b0 bc c2 c6 14 3d
       0.020315237 -0.024320353 -0.021599267 0.036322363
0002d0 64 dd 19 3c 78 76 9f 3c a0 e1 33 bc ed 5b a6 bc
       0.009391163 0.01946567 -0.010979086 -0.020307506
0002e0 bd c9 05 bc 03 5a 95 bb 81 45 e2 3b 81 0e 0e 3d
       -0.008165774 -0.0045578494 0.006905258 0.0346818
0002f0 ee b8 fe bc 81 b1 90 3c 86 ef bd bc a1 3e a4 3c
       -0.03109404 0.017662765 -0.023185503 0.020049395
000300 da a3 84 3c 2e 87 19 bc aa 7f 79 bc c6 e5 95 3c
       0.016191412 -0.009370608 -0.015228191 0.018298041
000310 d0 3f 46 3c 72 33 68 bc ce 10 20 bc 2e d1 96 3c
       0.012100175 -0.014172422 -0.009769632 0.018410292
000320 aa b1 a8 3c e8 dc 5a 3c 90 0f be bc d0 19 c7 bc
       0.02059253 0.013358332 -0.02320078 -0.0243043
000330 16 8d d2 3c 88 06 06 bd 88 9d d5 bc 82 ea a6 bc
       0.02570204 -0.032721072 -0.026076093 -0.020375494
000340 de e3 de bc a8 0f 65 3c 09 87 04 3d 23 e5 dc 3c
       -0.027208265 0.0139807835 0.032355342 0.02696473
000350 df 5f d8 3c ef d7 62 bb 90 b4 04 3d cc 0d 61 3c
       0.026412902 -0.003461357 0.03239876 0.0137362
000360 ae 63 92 3c b1 0d 16 3d 98 80 1f 3c dc b8 c3 bc
       0.017869797 0.03663415 0.009735249 -0.023891859
000370 d8 d1 e3 bc 2a e1 77 bc d8 28 97 3b 30 27 21 bb
       -0.027810022 -0.015129367 0.0046130233 -0.0024590008
000380 10 47 32 3c 07 32 8f bc 4c e7 07 bd d5 66 f4 bc
       0.0108812 -0.01747991 -0.033179566 -0.02983419
000390 16 6e d3 3c 28 1e 2b 3c 5f 88 b2 3a e4 54 0f 3d
       0.025809329 0.0104442015 0.0013620964 0.034993067
0003a0 1f 10 23 bc 75 e0 85 3b 33 62 a0 3b 23 94 97 bc
       -0.009952574 0.0040855953 0.0048945188 -0.018503254
0003b0 08 53 5f bc 04 bf 01 bd b7 c7 99 3c f6 53 88 3c
       -0.013630636 -0.031676307 0.01877199 0.016641598
0003c0 95 a0 6f bc b9 62 17 3c df cd 22 bc b8 7f 00 3d
       -0.014625688 0.009239846 -0.009936779 0.031371802
0003d0 08 77 c9 bc 83 6a b5 3b e2 81 d1 3c b5 b7 c2 3c
       -0.024592891 0.005536379 0.025574628 0.023769239
0003e0 ec a9 86 bc 5c fa 71 bc 08 00 a4 3c 9c 35 94 3c
       -0.016438447 -0.014769163 0.020019546 0.01809197
0003f0 c6 f9 57 bc 41 ef e9 bc dc d1 02 bc 9c e7 88 bc
       -0.013182109 -0.028556468 -0.007984605 -0.016712002

exp_avg f4 [10, 784]
000000 00 00 00 00 00 00 00 00 00 00 00 00 00 00 00 00
       0.0 0.0 0.0 0.0
000010 00 00 00 00 00 00 00 00 00 00 00 00 00 00 00 00
       0.0 0.0 0.0 0.0
000020 00 00 00 00 00 00 00 00 00 00 00 00 00 00 00 00
       0.0 0.0 0.0 0.0
000030 00 00 00 00 00 00 00 00 00 00 00 00 00 00 00 00
       0.0 0.0 0.0 0.0
000040 00 00 00 00 00 00 00 00 00 00 00 00 00 00 00 00
       0.0 0.0 0.0 0.0
000050 00 00 00 00 00 00 00 00 00 00 00 00 00 00 00 00
       0.0 0.0 0.0 0.0
000060 00 00 00 00 00 00 00 00 00 00 00 00 00 00 00 00
       0.0 0.0 0.0 0.0
000070 00 00 00 00 00 00 00 00 00 00 00 00 00 00 00 00
       0.0 0.0 0.0 0.0
000080 00 00 00 00 00 00 00 00 00 00 00 00 00 00 00 00
       0.0 0.0 0.0 0.0
000090 00 00 00 00 00 00 00 00 00 00 00 00 00 00 00 00
       0.0 0.0 0.0 0.0
0000a0 00 00 00 00 00 00 00 00 00 00 00 00 00 00 00 00
       0.0 0.0 0.0 0.0
0000b0 00 00 00 00 00 00 00 00 00 00 00 00 00 00 00 00
       0.0 0.0 0.0 0.0
0000c0 00 00 00 00 00 00 00 00 00 00 00 00 00 00 00 00
       0.0 0.0 0.0 0.0
0000d0 00 00 00 00 00 00 00 00 00 00 00 00 00 00 00 00
       0.0 0.0 0.0 0.0
0000e0 00 00 00 00 00 00 00 00 00 00 00 00 00 00 00 00
       0.0 0.0 0.0 0.0
0000f0 00 00 00 00 00 00 00 00 00 00 00 00 00 00 00 00
       0.0 0.0 0.0 0.0
000100 00 00 00 00 00 00 00 00 00 00 00 00 00 00 00 00
       0.0 0.0 0.0 0.0
000110 00 00 00 00 00 00 00 00 00 00 00 00 00 00 00 00
       0.0 0.0 0.0 0.0
000120 00 00 00 00 00 00 00 00 00 00 00 00 00 00 00 00
       0.0 0.0 0.0 0.0
000130 00 00 00 00 00 00 00 00 00 00 00 00 00 00 00 00
       0.0 0.0 0.0 0.0
000140 00 00 00 00 00 00 00 00 00 00 00 00 00 00 00 00
       0.0 0.0 0.0 0.0
000150 00 00 00 00 00 00 00 00 00 00 00 00 00 00 00 00
       0.0 0.0 0.0 0.0
000160 00 00 00 00 00 00 00 00 00 00 00 00 00 00 00 00
       0.0 0.0 0.0 0.0
000170 00 00 00 00 00 00 00 00 d7 f3 e7 b5 47 30 2a b7
       0.0 0.0 -1.7281808e-06 -1.014403e-05
000180 7b 39 6d b7 00 00 00 00 00 00 00 00 00 00 00 00
       -1.4139684e-05 0.0 0.0 0.0
000190 00 00 00 00 00 00 00 00 00 00 00 00 00 00 00 00
       0.0 0.0 0.0 0.0
0001a0 00 00 00 00 00 00 00 00 00 00 00 00 00 00 00 00
       0.0 0.0 0.0 0.0
0001b0 00 00 00 00 00 00 00 00 00 00 00 00 00 00 00 00
       0.0 0.0 0.0 0.0
0001c0 00 00 00 00 00 00 00 00 00 00 00 00 00 00 00 00
       0.0 0.0 0.0 0.0
0001d0 00 00 00 00 00 00 00 00 00 00 00 00 00 00 00 00
       0.0 0.0 0.0 0.0
0001e0 00 00 00 00 14 6e 12 b6 d2 ae ce b7 31 13 12 b8
       0.0 -2.181977e-06 -2.463852e-05 -3.4826986e-05
0001f0 92 72 9e b7 3e 40 0c b7 ba 05 49 b8 c6 e6 81 b8
       -1.8888419e-05 -8.359608e-06 -4.7927468e-05 -6.194184e-05
000200 1c 04 81 b8 f3 a3 7f b8 c7 96 5e b8 f8 84 2a b8
       -6.151965e-05 -6.0949427e-05 -5.3069347e-05 -4.0654995e-05
000210 86 72 72 b7 29 9b 90 b7 94 f8 87 b7 5c 73 42 b6
       -1.4450989e-05 -1.723839e-05 -1.6209007e-05 -2.89754e-06
000220 00 00 00 00 00 00 00 00 00 00 00 00 00 00 00 00
       0.0 0.0 0.0 0.0
000230 00 00 00 00 00 00 00 00 00 00 00 00 00 00 00 00
       0.0 0.0 0.0 0.0
000240 00 00 00 00 00 00 00 00 00 00 00 00 00 00 00 00
       0.0 0.0 0.0 0.0
000250 cd 8c 00 b6 d2 dc 68 b7 9f 82 50 b8 03 51 45 b8
       -1.9155443e-06 -1.3879691e-05 -4.9712715e-05 -4.7043908e-05
000260 35 7f 29 b8 fa 20 4a b8 73 55 b8 b8 aa 96 d4 b8
       -4.041121e-05 -4.8191265e-05 -8.78972e-05 -0.00010137011
000270 a4 f9 d3 b8 ac a3 f1 b8 a3 2c ec b8 d8 d6 e7 b8
       -0.00010107763 -0.00011522262 -0.00011261671 -0.00011054956
000280 1c 9e a3 b8 05 c4 4f b8 71 35 a2 b7 71 cd db b6
       -7.801896e-05 -4.9535203e-05 -1.933679e-05 -6.550625e-06
000290 00 00 00 00 00 00 00 00 00 00 00 00 00 00 00 00
       0.0 0.0 0.0 0.0
0002a0 00 00 00 00 00 00 00 00 00 00 00 00 00 00 00 00
       0.0 0.0 0.0 0.0
0002b0 00 00 00 00 00 00 00 00 00 00 00 00 cd 0c cc b5
       0.0 0.0 0.0 -1.520291e-06
0002c0 90 cb 94 b7 e3 5a 3d b8 69 93 7d b8 20 0a 38 b8
       -1.7737766e-05 -4.5145756e-05 -6.0457187e-05 -4.387845e-05
0002d0 92 67 7a b8 42 86 bb b8 56 4d 0b b9 c3 ad 30 b9
       -5.9701102e-05 -8.941862e-05 -0.00013284883 -0.00016849399
0002e0 48 60 0f b9 58 e6 1f b9 48 c8 3e b9 fd a4 24 b9
       -0.0001367341 -0.00015249231 -0.00018194423 -0.00015701722
0002f0 2f b6 e0 b8 a1 bf 89 b8 48 1a 3f b8 eb 3e 00 b7
       -0.00010715087 -6.568363e-05 -4.5562425e-05 -7.644044e-06
000300 00 00 00 00 00 00 00 00 00 00 00 00 00 00 00 00
       0.0 0.0 0.0 0.0
000310 00 00 00 00 00 00 00 00 00 00 00 00 00 00 00 00
       0.0 0.0 0.0 0.0
000320 00 00 00 00 00 00 00 00 00 00 00 00 9a 61 66 b7
       0.0 0.0 0.0 -1.3731793e-05
000330 79 d8 15 b8 9f 80 76 b8 99 1c 2d b8 42 b4 3d b8
       -3.5725974e-05 -5.877076e-05 -4.1273048e-05 -4.522899e-05
000340 35 2d 9c b8 67 43 e1 b8 62 94 07 b9 2e 0e f7 b8
       -7.44708e-05 -0.00010741391 -0.0001292988 -0.00011780519
000350 5f a6 10 b9 3a e0 18 b9 78 c5 30 b9 33 8c 1e b9
       -0.00013794888 -0.0001457938 -0.00016858231 -0.00015120282
000360 cc 61 0e b9 c3 90 b6 b8 03 40 92 b8 b9 0e 72 b7
       -0.00013578607 -8.7054e-05 -6.9737456e-05 -1.4427752e-05
000370 00 00 00 00 00 00 00 00 00 00 00 00 00 00 00 00
       0.0 0.0 0.0 0.0
000380 00 00 00 00 00 00 00 00 00 00 00 00 00 00 00 00
       0.0 0.0 0.0 0.0
000390 00 00 00 00 00 00 00 00 00 48 96 b7 33 50 f7 b7
       0.0 0.0 -1.7914921e-05 -2.948204e-05
0003a0 1c 52 46 b8 85 3f 55 b8 31 fb 07 b8 6c 98 6b b8
       -4.728335e-05 -5.0842315e-05 -3.242045e-05 -5.617032e-05
0003b0 93 c6 95 b8 c0 60 dc b8 f5 ed 03 b9 13 c2 a1 b8
       -7.141861e-05 -0.000105084386 -0.0001258178 -7.7132274e-05
0003c0 b5 75 86 b8 e3 5e b1 b8 63 e1 fc b8 8c 04 f1 b8
       -6.4115426e-05 -8.457692e-05 -0.00012058278 -0.000114926224
0003d0 ca 7c 05 b9 3d ca 00 b9 ab 87 b3 b8 29 cb e4 b7
       -0.00012730356 -0.00012282371 -8.560655e-05 -2.7274322e-05
0003e0 00 00 00 00 00 00 00 00 00 00 00 00 00 00 00 00
       0.0 0.0 0.0 0.0
0003f0 00 00 00 00 00 00 00 00 00 00 00 00 00 00 00 00
       0.0 0.0 0.0 0.0

exp_avg_sq f4 [10, 784]
000000 00 00 00 00 00 00 00 00 00 00 00 00 00 00 00 00
       0.0 0.0 0.0 0.0
000010 00 00 00 00 00 00 00 00 00 00 00 00 00 00 00 00
       0.0 0.0 0.0 0.0
000020 00 00 00 00 00 00 00 00 00 00 00 00 00 00 00 00
       0.0 0.0 0.0 0.0
000030 00 00 00 00 00 00 00 00 00 00 00 00 00 00 00 00
       0.0 0.0 0.0 0.0
000040 00 00 00 00 00 00 00 00 00 00 00 00 00 00 00 00
       0.0 0.0 0.0 0.0
000050 00 00 00 00 00 00 00 00 00 00 00 00 00 00 00 00
       0.0 0.0 0.0 0.0
000060 00 00 00 00 00 00 00 00 00 00 00 00 00 00 00 00
       0.0 0.0 0.0 0.0
000070 00 00 00 00 00 00 00 00 00 00 00 00 00 00 00 00
       0.0 0.0 0.0 0.0
000080 00 00 00 00 00 00 00 00 00 00 00 00 00 00 00 00
       0.0 0.0 0.0 0.0
000090 00 00 00 00 00 00 00 00 00 00 00 00 00 00 00 00
       0.0 0.0 0.0 0.0
0000a0 00 00 00 00 00 00 00 00 00 00 00 00 00 00 00 00
       0.0 0.0 0.0 0.0
0000b0 00 00 00 00 00 00 00 00 00 00 00 00 00 00 00 00
       0.0 0.0 0.0 0.0
0000c0 00 00 00 00 00 00 00 00 00 00 00 00 00 00 00 00
       0.0 0.0 0.0 0.0
0000d0 00 00 00 00 00 00 00 00 00 00 00 00 00 00 00 00
       0.0 0.0 0.0 0.0
0000e0 00 00 00 00 00 00 00 00 00 00 00 00 00 00 00 00
       0.0 0.0 0.0 0.0
0000f0 00 00 00 00 00 00 00 00 00 00 00 00 00 00 00 00
       0.0 0.0 0.0 0.0
000100 00 00 00 00 00 00 00 00 00 00 00 00 00 00 00 00
       0.0 0.0 0.0 0.0
000110 00 00 00 00 00 00 00 00 00 00 00 00 00 00 00 00
       0.0 0.0 0.0 0.0
000120 00 00 00 00 00 00 00 00 00 00 00 00 00 00 00 00
       0.0 0.0 0.0 0.0
000130 00 00 00 00 00 00 00 00 00 00 00 00 00 00 00 00
       0.0 0.0 0.0 0.0
000140 00 00 00 00 00 00 00 00 00 00 00 00 00 00 00 00
       0.0 0.0 0.0 0.0
000150 00 00 00 00 00 00 00 00 00 00 00 00 00 00 00 00
       0.0 0.0 0.0 0.0
000160 00 00 00 00 00 00 00 00 00 00 00 00 00 00 00 00
       0.0 0.0 0.0 0.0
000170 00 00 00 00 00 00 00 00 9b 5c cf 2a f2 43 5f 2d
       0.0 0.0 3.6834845e-13 1.2691169e-11
000180 25 e5 d8 2d 00 00 00 00 00 00 00 00 00 00 00 00
       2.4658118e-11 0.0 0.0 0.0
000190 00 00 00 00 00 00 00 00 00 00 00 00 00 00 00 00
       0.0 0.0 0.0 0.0
0001a0 00 00 00 00 00 00 00 00 00 00 00 00 00 00 00 00
       0.0 0.0 0.0 0.0
0001b0 00 00 00 00 00 00 00 00 00 00 00 00 00 00 00 00
       0.0 0.0 0.0 0.0
0001c0 00 00 00 00 00 00 00 00 00 00 00 00 00 00 00 00
       0.0 0.0 0.0 0.0
0001d0 00 00 00 00 00 00 00 00 00 00 00 00 00 00 00 00
       0.0 0.0 0.0 0.0
0001e0 00 00 00 00 b6 47 25 2b 3f a4 a4 2e 76 21 0b 2f
       0.0 5.8719295e-13 7.4870325e-11 1.2653864e-10
0001f0 39 10 02 2e 1c a0 17 2d 33 bf 9b 2f cd 12 02 30
       2.9572986e-11 8.618908e-12 2.833019e-10 4.732044e-10
000200 6b 4e 00 30 ad e0 fb 2f 40 f5 be 2f 5c 22 60 2f
       4.667757e-10 4.5816276e-10 3.473506e-10 2.0384888e-10
000210 fa 8c e2 2d 39 30 21 2e 38 83 0e 2e e7 ba 91 2b
       2.5755831e-11 3.6649992e-11 3.2403608e-11 1.0354745e-12
000220 00 00 00 00 00 00 00 00 00 00 00 00 00 00 00 00
       0.0 0.0 0.0 0.0
000230 00 00 00 00 00 00 00 00 00 00 00 00 00 00 00 00
       0.0 0.0 0.0 0.0
000240 00 00 00 00 00 00 00 00 00 00 00 00 00 00 00 00
       0.0 0.0 0.0 0.0
000250 55 90 ce 2a 16 4e 43 2d 49 38 2a 2f 31 61 06 2f
       3.6693101e-13 1.1101805e-11 1.5481406e-10 1.2221758e-10
000260 67 e5 d4 2e 16 7d 2c 2f 93 10 46 30 04 d1 87 30
       9.681394e-11 1.5687748e-10 7.2055534e-10 9.881949e-10
000270 db 37 64 30 db b8 64 30 2d 5b 5c 30 09 9f 56 30
       8.302529e-10 8.320861e-10 8.01651e-10 7.807875e-10
000280 24 ee b9 2f 17 69 1b 2f a2 43 1b 2e f8 34 ba 2c
       3.3820513e-10 1.4134503e-10 3.530299e-11 5.2923187e-12
000290 00 00 00 00 00 00 00 00 00 00 00 00 00 00 00 00
       0.0 0.0 0.0 0.0
0002a0 00 00 00 00 00 00 00 00 00 00 00 00 00 00 00 00
       0.0 0.0 0.0 0.0
0002b0 00 00 00 00 00 00 00 00 00 00 00 00 20 1d 82 2a
       0.0 0.0 0.0 2.3112848e-13
0002c0 29 ad 02 2e 21 38 01 2f 40 6d 60 2f bb 59 f9 2e
       2.9712375e-11 1.1752423e-10 2.0411495e-10 1.13391484e-10
0002d0 a3 73 5c 2f 8b c4 10 30 26 24 bf 30 fe 68 00 31
       2.0049966e-10 5.26662e-10 1.3907353e-09 1.8686133e-09
0002e0 55 dd 91 30 a4 e3 b6 30 89 f3 0e 31 cd fa eb 30
       1.0613045e-09 1.3306942e-09 2.0802153e-09 1.7169782e-09
0002f0 7c e0 45 30 f8 73 84 2f 6a 81 00 2f c0 8e fd 2c
       7.1987194e-10 2.409306e-10 1.1687509e-10 7.206541e-12
000300 00 00 00 00 00 00 00 00 00 00 00 00 00 00 00 00
       0.0 0.0 0.0 0.0
000310 00 00 00 00 00 00 00 00 00 00 00 00 00 00 00 00
       0.0 0.0 0.0 0.0
000320 00 00 00 00 00 00 00 00 00 00 00 00 6b dc a5 2d
       0.0 0.0 0.0 1.8856213e-11
000330 8f c1 cb 2e e2 3d 53 2f 62 fb d1 2e 22 5f 1d 2f
       9.265754e-11 1.9212323e-10 9.548874e-11 1.4312865e-10
000340 35 e9 db 2f ff 9e 57 30 a8 8a a6 30 6f de 5f 30
       4.0001571e-10 7.844249e-10 1.2117498e-09 8.1443025e-10
000350 be 5e 93 30 0d 48 a6 30 22 aa ef 30 dd 27 e7 30
       1.0722585e-09 1.2098568e-09 1.7437893e-09 1.6818792e-09
000360 db ec b9 30 68 7a ec 2f fb 27 94 2f 9f 5e 5b 2d
       1.352784e-09 4.3015125e-10 2.694945e-10 1.2469719e-11
000370 00 00 00 00 00 00 00 00 00 00 00 00 00 00 00 00
       0.0 0.0 0.0 0.0
000380 00 00 00 00 00 00 00 00 00 00 00 00 00 00 00 00
       0.0 0.0 0.0 0.0
000390 00 00 00 00 00 00 00 00 21 27 0d 2e 17 23 bf 2e
       0.0 0.0 3.209444e-11 8.6919076e-11
0003a0 1d db 0b 2f 3f 34 24 2f 2b 74 e3 2e 1f ed d5 2f
       1.2719821e-10 1.4934275e-10 1.03434004e-10 3.891296e-10
0003b0 12 ee 0b 30 ed 2f 62 30 fd bf 94 30 8a d0 b6 2f
       5.0906224e-10 8.228643e-10 1.0822984e-09 3.3253783e-10
0003c0 9d a7 79 2f c6 0e f2 2f ca e0 a7 30 3c 3f 8f 30
       2.2705966e-10 4.403004e-10 1.2214738e-09 1.0422592e-09
0003d0 bc 6b a7 30 52 36 70 30 1f e7 e4 2f 1c 16 40 2e
       1.2181469e-09 8.7388685e-10 4.163718e-10 4.3675383e-11
0003e0 00 00 00 00 00 00 00 00 00 00 00 00 00 00 00 00
       0.0 0.0 0.0 0.0
0003f0 00 00 00 00 00 00 00 00 00 00 00 00 00 00 00 00
       0.0 0.0 0.0 0.0
