SpikingJelly模板/resume/checkpoint_max.pth (torch, 95715 bytes, 3 tensors)

1.weight f4 [10, 784]
000000 26 9d 04 bd cc c4 80 3c 75 1d 03 3d 20 78 be ba
       -0.03237643 0.01571884 0.032010514 -0.001453165
000010 10 b0 41 3b d7 87 0f 3d 9c ed d5 bb 19 1d 47 bd
       0.0029554404 0.035041656 -0.0065285694 -0.048611734
000020 ae 48 b9 bc 54 65 7b bc 7a 95 a4 3c 4a 40 e7 bc
       -0.022617664 -0.015343983 0.020090807 -0.028228898
000030 40 57 35 3c 02 7f c5 3c 70 e2 b9 bc 20 ac df 3a
       0.011068165 0.024108414 -0.022690982 0.0017064847
000040 de 49 96 bc 7d e1 07 3d 80 16 80 39 68 e9 08 bd
       -0.01834577 0.033174027 0.00024430826 -0.03342572
000050 ee 01 c2 3c 40 a0 0b bc ce 06 2b bc 0e e4 a8 bc
       0.02368256 -0.008522093 -0.010438634 -0.020616557
000060 fb 96 0d 3d bc 03 3f 3c b0 2f 6a 3c 13 c0 0d bd
       0.034567814 0.011658605 0.014293596 -0.034607004
000070 4e b3 07 bc 22 a5 ad 3c c0 28 1b ba 00 4c 9e bb
       -0.008282496 0.021196906 -0.0005918853 -0.0048308372
000080 f2 08 01 3d e8 df 5f 3c 6e 55 c5 bc 98 e5 a1 3b
       0.03150267 0.013664223 -0.024088588 0.0049407
000090 91 af ed bc 79 df 42 bd bb 95 b7 bd 18 c8 4f 3e
       -0.02901438 -0.0475764 -0.08964106 0.20291173
0000a0 32 bb 5e 3e d3 ce 74 3e a4 c2 d6 bd d8 2d f0 bc
       0.21751097 0.23907022 -0.104863435 -0.029318735
0000b0 9a f5 42 bd 54 41 09 bd 94 49 e9 bb a8 ab d2 3b
       -0.047597505 -0.033509567 -0.007119367 0.0064291544
0000c0 ab 65 0e bd 3d 98 20 3c e4 66 02 3a d3 83 06 3d
       -0.034764927 0.009801921 0.00049744383 0.03284056
0000d0 50 d6 34 bb fe 2c f8 3c ae fb d1 bc 93 32 06 3d
       -0.002759356 0.030294891 -0.025632706 0.032763075
0000e0 5a 86 eb 3c f0 09 98 3b 5f 6c d0 bc 4f 21 1d 3e
       0.028750587 0.0046398565 -0.0254423 0.15344737
0000f0 bc 3d 29 3e 8b bf 5c bd d9 48 86 be ef 65 10 be
       0.16527456 -0.053893607 -0.26227453 -0.14101385
000100 46 a4 a6 be e7 7f be be e9 43 ae be 60 af 51 be
       -0.32547206 -0.37206957 -0.34036186 -0.20477057
000110 a5 4c 93 be af 2b 9a be f3 fe cf be 2a 25 f2 be
       -0.28769413 -0.30111453 -0.40624198 -0.4729398
000120 50 e0 a0 be 1b d1 1f bf e8 b9 0e bf 5a 53 a2 be
       -0.31421137 -0.62428445 -0.5575242 -0.31704217
000130 98 b0 de be 25 64 8e be 4a 0c 7b bd 69 5f 3e bd
       -0.43494105 -0.2781078 -0.061291017 -0.04647771
000140 d2 39 90 3c 52 80 1e bc ba b5 d5 3c 28 53 e4 bc
       0.017605696 -0.009674149 0.02608763 -0.027871683
000150 d0 85 4d 3c b8 7a ba 3b 76 ce 40 bd ea 8e 6a 3d
       0.01254411 0.0056908987 -0.047071896 0.0572652
000160 20 31 80 bd 3b fd 01 be 85 39 bb be 32 02 8f be
       -0.0625937 -0.12694256 -0.3656732 -0.27931362
000170 fb 8a 1e be 00 9e d5 be b4 79 b8 be 91 0c 57 be
       -0.15482704 -0.41722107 -0.36030352 -0.21000887
000180 f1 44 26 be 45 e9 5c bd 8e 0c a7 bd af 2e 39 be
       -0.16237237 -0.0539334 -0.081566915 -0.18084215
000190 11 2a a4 bd 28 a2 ea bd 27 28 7e be aa c4 44 be
       -0.08015836 -0.1145671 -0.24820004 -0.19215646
0001a0 96 ed 58 be c1 3d a2 be a4 85 b5 be dd 24 28 be
       -0.21184382 -0.3168774 -0.35453522 -0.16420312
0001b0 30 08 31 bd a0 dc 29 be 8c d1 4b be e0 bf d8 3a
       -0.0432207 -0.16588068 -0.19904155 0.0016536675
0001c0 64 31 f9 bb 0a 4e cc 3c 8b 11 37 bc 87 f1 29 be
       -0.007604765 0.024939556 -0.011173616 -0.16596042
0001d0 44 60 7e be ac 88 c4 be d0 0a b3 be c8 70 43 be
       -0.2484141 -0.38385522 -0.34969187 -0.19085991
0001e0 ab 12 44 3c a9 78 12 3d a6 7a 85 bd 35 d2 1b 3c
       0.011967341 0.0357596 -0.06517534 0.0095105665
0001f0 a8 11 a3 bd 8e 1a d7 3b 4b b6 c0 bb 83 54 1d 3d
       -0.07962352 0.006564445 -0.005881106 0.038410675
000200 af 50 ff bd 1c b8 04 3c 0a c3 8f 3c 42 9a b9 bb
       -0.12466561 0.008100536 0.017549057 -0.005664141
000210 cf 24 15 3b 59 63 a1 bd 74 b7 9c 3c 31 bc 57 bb
       0.0022757535 -0.07880277 0.019130446 -0.0032918567
000220 ae 72 8f be da 0f a7 be 24 9d 4e be 8e cf df 3c
       -0.2801718 -0.3262928 -0.20177132 0.02732065
000230 24 6c 2f 3c ec 42 a5 3c 81 8a 42 be ab cf ab bd
       0.010706935 0.020173512 -0.18998148 -0.08389219
000240 c1 69 96 be c4 7d df be 48 da a5 3c 0c 63 c8 bd
       -0.2937756 -0.4365064 0.020245686 -0.09784517
000250 7b 8d 1c bc 4a 76 58 bd 8e 74 15 3d 14 f3 19 3c
       -0.009555216 -0.052847184 0.03648811 0.009396333
000260 e2 d7 c7 bc b6 04 8a 3d 56 4c e2 3d 19 74 65 3d
       -0.024394933 0.0673918 0.11049716 0.056018922
000270 98 f3 9d 3d a4 17 da 3c 02 30 67 3d 8a 17 00 bd
       0.077124774 0.0266226 0.05644227 -0.03127245
000280 f4 c1 03 bd 95 c5 e7 bd 89 00 16 bd 12 02 f1 bc
       -0.03216739 -0.11316983 -0.036621604 -0.029419933
000290 38 57 89 be f7 5f 04 bf 9f b2 99 be c0 15 67 be
       -0.26824355 -0.5170893 -0.3001909 -0.2256689
0002a0 26 c1 b4 3c 43 c6 01 bd 0f 7a 33 be 24 d9 9e bd
       0.022064757 -0.031683218 -0.1752703 -0.0775626
0002b0 bd f7 80 be 6a a5 94 bd 2e 20 29 bd 57 8d aa bd
       -0.2518901 -0.07258113 -0.041290455 -0.0832774
0002c0 f8 a3 c3 bd d3 de 60 be 37 13 2e bd 2e fa 01 bd
       -0.09552759 -0.2196 -0.042498793 -0.03173273
0002d0 b8 9b 83 bd dc 74 6e 3c 3e 06 4f 3d 88 f7 a4 3c
       -0.06426185 0.014554229 0.050543062 0.020137563
0002e0 9e 3e 81 3c e6 f7 6b 3d 36 96 6a 3d c3 da 0d 3d
       0.015776929 0.05760946 0.05727216 0.034632456
0002f0 f4 6f b2 bc 0b e9 cd 3d 37 6a d5 3d c0 49 97 bd
       -0.021781899 0.10054215 0.104206495 -0.073871136
000300 ed ec bc be 38 1e 32 bf a9 49 03 bf 58 3d 8b be
       -0.3689951 -0.6957736 -0.5128427 -0.2719524
000310 00 d3 1f 39 a5 80 93 3c 5b 58 a6 bd d4 11 35 be
       0.00015242025 0.018005678 -0.08122321 -0.17682582
000320 07 30 af be 6a ab 03 3d 1d 98 a6 3d 4f 67 18 bb
       -0.3421633 0.032145895 0.08134482 -0.0023254936
000330 ed ae 0b be 1f ae 8b ba d2 6b d0 b9 f4 e7 9a 3b
       -0.13640948 -0.001065675 -0.00039753184 0.004727358
000340 81 dd cb bc 03 c2 5f 3d 66 2d e0 3c 61 fa 72 39
       -0.024885895 0.054628383 0.027365398 0.00023172192
000350 ca 95 8d 3c 9d 9a 24 3e bd a1 f5 3d ad 3d da 3d
       0.017283339 0.16074605 0.1199374 0.10656295
000360 a4 d6 c4 3b 9d 78 78 3d a0 98 3b 3c 1e 5c 03 bd
       0.0060070325 0.0606619 0.011449963 -0.03207027
000370 2d 98 bc be 40 20 e1 be bd ca 06 bf e3 10 a8 bd
       -0.3683485 -0.43969917 -0.52653104 -0.08206346
000380 a2 0b 5c 3e 60 10 5b bb 95 31 a0 3d 2a 48 fe 3c
       0.21488813 -0.0033426508 0.07821957 0.03104027
000390 2c bc be be a9 6e 64 bd a4 eb 33 3d 7c 1b 99 3b
       -0.3725294 -0.055769596 0.043925896 0.004672466
0003a0 07 63 6d 3b 45 76 e3 3c 65 f8 8d 3c 72 0a d5 bb
       0.0036222355 0.027766356 0.017330358 -0.0065014893
0003b0 cd 75 8b 3d 58 f1 76 bc e4 92 a0 3d 6e f6 fe 3d
       0.06809578 -0.015072189 0.07840517 0.124493465
0003c0 6f 6a 72 3e 06 80 13 3e 65 c3 b5 3d 7b aa 94 3d
       0.23673414 0.14404306 0.08875159 0.07259079
0003d0 25 51 45 3d 66 c1 d7 3b fa aa ed 3b db 9e d0 3d
       0.04817309 0.006584334 0.007253048 0.10186549
0003e0 ab c3 a4 be f5 9f 30 bf 66 2d e9 be 11 fe 17 be
       -0.32180533 -0.68994075 -0.4554245 -0.14843012
0003f0 b0 df bb 3c 40 f0 85 3b a0 39 26 3e 85 ce c5 bd
       0.022933811 0.004087478 0.1623292 -0.09658531

exp_avg f4 [10, 784]
000000 04 00 00 00 00 00 00 00 00 00 00 00 00 00 00 00
       6e-45 0.0 0.0 0.0
000010 00 00 00 00 00 00 00 00 00 00 00 00 04 00 00 00
       0.0 0.0 0.0 6e-45
000020 00 00 00 00 00 00 00 00 00 00 00 00 00 00 00 00
       0.0 0.0 0.0 0.0
000030 00 00 00 00 00 00 00 00 00 00 00 00 00 00 00 00
       0.0 0.0 0.0 0.0
000040 00 00 00 00 00 00 00 00 00 00 00 00 00 00 00 00
       0.0 0.0 0.0 0.0
000050 00 00 00 00 00 00 00 00 00 00 00 00 00 00 00 00
       0.0 0.0 0.0 0.0
000060 00 00 00 00 00 00 00 00 00 00 00 00 00 00 00 00
       0.0 0.0 0.0 0.0
000070 00 00 00 00 00 00 00 00 00 00 00 00 00 00 00 00
       0.0 0.0 0.0 0.0
000080 04 00 00 80 00 00 00 00 00 00 00 00 00 00 00 00
       -6e-45 0.0 0.0 0.0
000090 00 00 00 00 04 00 00 00 04 00 00 00 b7 43 3a ae
       0.0 6e-45 6e-45 -4.2351646e-11
0000a0 40 ac c8 ae cf 4a 12 ae 04 00 00 00 e2 fa 4d 88
       -9.125545e-11 -3.3263e-11 6e-45 -6.1984855e-34
0000b0 46 fe 24 89 34 cd c1 88 00 00 00 00 00 00 00 00
       -1.986034e-33 -1.1664008e-33 0.0 0.0
0000c0 04 00 00 00 04 00 00 00 04 00 00 00 00 00 00 00
       6e-45 6e-45 6e-45 0.0
0000d0 00 00 00 00 00 00 00 00 00 00 00 00 00 00 00 00
       0.0 0.0 0.0 0.0
0000e0 00 00 00 00 00 00 00 00 04 00 00 00 e5 7e f0 b3
       0.0 0.0 6e-45 -1.1198953e-07
0000f0 97 cf f2 b2 04 00 00 00 e5 4a fd 2b 7a ff 0d 2c
       -2.8266909e-08 6e-45 1.7997519e-12 2.0179123e-12
000100 36 81 95 2f c9 69 81 31 6c aa 57 31 9b bb bf ad
       2.7194752e-10 3.7664205e-09 3.1383491e-09 -2.17975e-11
000110 60 bd ab ae ee 41 60 ae b2 c7 b2 ac 0b de d3 2a
       -7.8098195e-11 -5.099026e-11 -5.081235e-12 3.7635203e-13
000120 3a 8e 7b 2b aa b3 85 2a 6f 66 88 2d 67 9c 0b 2e
       8.937049e-13 2.3750213e-13 1.55069e-11 3.1743854e-11
000130 90 45 d0 2d 04 ab 8d 23 04 00 00 00 04 00 00 00
       2.3677754e-11 1.5359679e-17 6e-45 6e-45
000140 04 00 00 00 00 00 00 00 00 00 00 00 00 00 00 00
       6e-45 0.0 0.0 0.0
000150 00 00 00 00 00 00 00 00 04 00 00 00 2a 5a 0d b5
       0.0 0.0 6e-45 -5.26578e-07
000160 e9 ab 13 b4 88 f3 fb 89 5e 83 f7 2b 94 ca 0f 2c
       -1.3752982e-07 -6.0655068e-33 1.7586867e-12 2.0433976e-12
000170 06 1a 4f 31 01 49 a4 31 a7 53 82 32 27 22 1b 34
       3.0137257e-09 4.781328e-09 1.5172033e-08 1.4447924e-07
000180 07 f6 5a b4 0d ab 9f 36 c0 3c ca 36 75 8e 60 b8
       -2.0392336e-07 4.758482e-06 6.0271414e-06 -5.3538435e-05
000190 88 4e 8d b7 d0 2f dc b7 08 72 84 b7 a4 a6 bd b6
       -1.6845079e-05 -2.6248308e-05 -1.5788726e-05 -5.6520385e-06
0001a0 b1 8a bf 36 68 0f cc 37 d9 6d 1e 37 4a fe bd b4
       5.7083894e-06 2.432587e-05 9.44311e-06 -3.5389013e-07
0001b0 db bd 85 2c 57 00 8a 81 04 00 00 00 00 00 00 00
       3.8011655e-12 -5.069368e-38 6e-45 0.0
0001c0 00 00 00 00 00 00 00 00 04 00 00 00 10 d9 85 1a
       0.0 0.0 6e-45 5.5358194e-23
0001d0 48 90 e5 1a d5 a5 9b 2a 36 27 30 2f da f6 1d 31
       9.494528e-23 2.76486e-13 1.6021037e-10 2.2986826e-09
0001e0 bf 5a 4c 33 3c 86 2c 34 7c 3c 32 35 1f 28 9c b6
       4.7579984e-08 1.6067582e-07 6.6398184e-07 -4.653833e-06
0001f0 9b 8f b7 34 be d5 1b 38 3b 41 4b 38 65 50 da 36
       3.4190893e-07 3.7153943e-05 4.8459722e-05 6.5062654e-06
000200 db 69 ab 37 f4 96 01 38 73 96 08 38 80 8f d3 37
       2.0434081e-05 3.0896583e-05 3.2565044e-05 2.5219982e-05
000210 79 ef cd 37 56 8f d0 37 bd b3 a7 37 f3 51 92 34
       2.4549418e-05 2.4862278e-05 1.9991649e-05 2.7254245e-07
000220 b6 2f 44 2e 4a f0 51 2c bd 8a 00 03 00 00 00 00
       4.4607616e-11 2.9834074e-12 3.7775083e-37 0.0
000230 00 00 00 00 00 00 00 00 b5 8d 0d 1b 3d b9 89 9d
       0.0 0.0 1.1709035e-22 -3.645513e-21
000240 90 0d 85 1c 89 cc e8 32 8e a0 22 36 d2 4b d2 b3
       8.804708e-22 2.7101366e-08 2.4233336e-06 -9.792679e-08
000250 85 84 5d 35 ab 33 3f 36 c3 c0 e1 b4 d0 10 88 36
       8.2521757e-07 2.8491293e-06 -4.2049768e-07 4.055073e-06
000260 8a 74 16 38 06 d3 29 38 80 0d bc 37 1b eb d3 37
       3.5871322e-05 4.048927e-05 2.2417633e-05 2.526264e-05
000270 6c f6 53 38 66 ba 3a 38 b6 d5 a2 37 0b 90 19 38
       5.053582e-05 4.4519453e-05 1.9411422e-05 3.6612193e-05
000280 95 2e 55 38 8f 61 1d 38 78 de 55 37 e5 e2 1a 34
       5.082654e-05 3.7522575e-05 1.2747587e-05 1.4424911e-07
000290 ff 98 4b 2f 56 14 1c 2e 0e 6a d1 0d ea 02 00 00
       1.8517098e-10 3.5488355e-11 1.2906151e-30 1.045e-42
0002a0 00 00 00 00 00 00 00 00 01 e3 d8 18 17 00 00 00
       0.0 0.0 5.6063907e-24 3.2e-44
0002b0 88 2f 85 b4 50 cb ef 36 cb 27 a3 37 e3 fc 87 36
       -2.4807764e-07 7.1464237e-06 1.9449644e-05 4.0527534e-06
0002c0 a4 68 15 37 67 e3 3a 37 34 7d 7d 37 0b de 62 38
       8.905456e-06 1.113941e-05 1.5109126e-05 5.4089393e-05
0002d0 a9 64 20 38 ca 9f 17 37 4f ca 01 b7 55 f5 d3 36
       3.824072e-05 9.037505e-06 -7.736103e-06 6.3168504e-06
0002e0 f4 9f 77 38 fa 01 48 b5 2d 98 cd b7 30 1e f2 37
       5.9038357e-05 -7.450868e-07 -2.4508767e-05 2.8862705e-05
0002f0 fa e4 b4 37 5b 2f 3e 38 5a 7a 85 b4 8c 8e 2c b7
       2.1564298e-05 4.5343633e-05 -2.4862203e-07 -1.0285188e-05
000300 6e f2 93 b5 86 62 90 31 c6 ef 12 22 2c 73 ce 09
       -1.102291e-06 4.2021524e-09 1.9913625e-18 4.9701003e-33
000310 00 00 00 00 04 00 00 80 82 00 00 00 8b f4 d7 1e
       0.0 -6e-45 1.82e-43 2.2865151e-20
000320 68 98 44 b2 0a 86 ce 36 f6 2f cb 37 c3 84 04 38
       -1.1443355e-08 6.1548826e-06 2.422182e-05 3.1594896e-05
000330 95 26 38 38 83 a2 a0 37 60 94 d4 38 0c ef ae 38
       4.390495e-05 1.9149162e-05 0.00010136585 8.3414925e-05
000340 cd 28 c4 38 bd c9 6b 38 1b 08 30 38 54 7c 09 39
       9.353608e-05 5.621625e-05 4.196922e-05 0.00013111654
000350 57 6e 13 39 fe e3 82 38 1f 13 3d b5 2c 09 8f b7
       0.00014060117 6.24135e-05 -7.043581e-07 -1.70512e-05
000360 9c 51 ae 37 ad c4 ad 37 f2 17 82 34 65 b0 c9 b6
       2.0780419e-05 2.0714791e-05 2.423181e-07 -6.010802e-06
000370 08 19 4a b6 d2 8f a9 b1 4b 3b 62 24 04 00 00 00
       -3.0114916e-06 -4.934898e-09 4.905616e-17 6e-45
000380 7c ac 90 84 00 00 00 00 1d 00 00 80 6f 81 a0 1f
       -3.401264e-36 0.0 -4e-44 6.7976766e-20
000390 57 3c d8 36 a0 93 79 37 8c 3b 05 38 d7 ac 73 38
       6.444326e-06 1.4875928e-05 3.176513e-05 5.8096684e-05
0003a0 f8 5a ed 38 97 24 1c 39 e4 7f 19 39 1e 64 98 38
       0.00011317985 0.0001489095 0.0001463886 7.266573e-05
0003b0 22 72 56 38 75 96 1c 38 a0 3b 6b 38 99 39 e4 38
       5.112787e-05 3.7333422e-05 5.6083896e-05 0.000108826156
0003c0 18 db ce 38 95 52 8f 38 dd 02 81 38 40 4e ae 38
       9.863655e-05 6.8341535e-05 6.151733e-05 8.311542e-05
0003d0 aa d0 65 38 81 31 2c b7 ec d3 06 b7 c5 ad 8b b4
       5.4792188e-05 -1.0263525e-05 -8.036364e-06 -2.6017202e-07
0003e0 15 c9 f0 35 84 34 fe 31 e1 ea c6 27 04 00 00 00
       1.7939916e-06 7.3983433e-09 5.5210696e-15 6e-45
0003f0 00 00 00 00 00 00 00 00 12 0d 2c 96 e0 04 47 33
       0.0 0.0 -1.3898174e-25 4.6337732e-08

exp_avg_sq f4 [10, 784]
000000 54 f3 8a 23 00 00 00 00 00 00 00 00 00 00 00 00
       1.5065043e-17 0.0 0.0 0.0
000010 00 00 00 00 00 00 00 00 00 00 00 00 a2 57 b5 24
       0.0 0.0 0.0 7.864469e-17
000020 00 00 00 00 00 00 00 00 00 00 00 00 00 00 00 00
       0.0 0.0 0.0 0.0
000030 00 00 00 00 00 00 00 00 00 00 00 00 00 00 00 00
       0.0 0.0 0.0 0.0
000040 00 00 00 00 00 00 00 00 00 00 00 00 00 00 00 00
       0.0 0.0 0.0 0.0
000050 00 00 00 00 00 00 00 00 00 00 00 00 00 00 00 00
       0.0 0.0 0.0 0.0
000060 00 00 00 00 00 00 00 00 00 00 00 00 00 00 00 00
       0.0 0.0 0.0 0.0
000070 00 00 00 00 00 00 00 00 00 00 00 00 00 00 00 00
       0.0 0.0 0.0 0.0
000080 28 97 f2 27 00 00 00 00 00 00 00 00 00 00 00 00
       6.7332377e-15 0.0 0.0 0.0
000090 00 00 00 00 9a 63 91 22 a1 0b 33 28 3f 5c ab 2e
       0.0 3.9407786e-18 9.939018e-15 7.792566e-11
0000a0 9a 4e ac 2f 22 85 36 2e 57 99 3c 2a 85 83 29 28
       3.1342468e-10 4.1500255e-11 1.6750955e-13 9.409903e-15
0000b0 37 4f 10 29 61 81 ab 27 00 00 00 00 00 00 00 00
       3.204313e-14 4.7602307e-15 0.0 0.0
0000c0 7c b3 53 25 e4 34 9f 28 4c e4 ae 27 00 00 00 00
       1.8362144e-16 1.7675484e-14 4.854222e-15 0.0
0000d0 00 00 00 00 00 00 00 00 00 00 00 00 00 00 00 00
       0.0 0.0 0.0 0.0
0000e0 00 00 00 00 00 00 00 00 35 2e 23 20 e6 6a be 2a
       0.0 0.0 1.3821926e-19 3.3824956e-13
0000f0 c3 b6 bb 28 44 1e 02 26 7a fd b6 2d 23 84 4b 2e
       2.084043e-14 4.514383e-16 2.080357e-11 4.6274217e-11
000100 a9 fe d7 2c 6a d2 b0 2e 7d ac 83 2e ed 2e cb 2e
       6.1389405e-12 8.0409304e-11 5.9878304e-11 9.239707e-11
000110 95 01 d3 2f ff 3c 75 2f 40 6e fe 2e 19 76 66 2e
       3.83818e-10 2.230429e-10 1.1570167e-10 5.2400837e-11
000120 46 a1 f2 2f 93 83 34 2f 07 f1 6a 2f f1 0c 44 2f
       4.4134135e-10 1.6417649e-10 2.1367806e-10 1.7830694e-10
000130 da 93 b8 2e bc ac 2b 2c 31 ca 9b 29 82 e0 80 28
       8.393615e-11 2.4396448e-12 6.9184574e-14 1.430822e-14
000140 16 53 9f 27 00 00 00 00 00 00 00 00 00 00 00 00
       4.4221447e-15 0.0 0.0 0.0
000150 00 00 00 00 00 00 00 00 e6 08 17 22 77 02 f6 2c
       0.0 0.0 2.0469027e-18 6.992014e-12
000160 c4 5e b2 2b 64 9a bc 2b a6 ec 0d 2e bd cc fe 2e
       1.2673963e-12 1.3401055e-12 3.2269874e-11 1.15869515e-10
000170 cd d4 33 30 6a 5a ab 30 00 e8 2c 31 02 7b a0 31
       6.542223e-10 1.2467585e-09 2.516117e-09 4.6705972e-09
000180 c2 e1 c2 31 8c ba 14 32 5f 0e 26 32 16 50 1c 32
       5.671809e-09 8.65715e-09 9.665739e-09 9.0986045e-09
000190 52 5d 55 32 b9 82 57 32 13 a5 28 32 cc bd 0d 32
       1.241945e-08 1.254437e-08 9.816421e-09 8.250435e-09
0001a0 34 16 ba 31 e6 e9 21 31 7a 03 63 30 92 c9 22 2f
       5.4158367e-09 2.356154e-09 8.258706e-10 1.4805426e-10
0001b0 8f 55 e8 2d 02 0c 65 2e 28 cb 65 2c 00 00 00 00
       2.6413342e-11 5.2079237e-11 3.2655632e-12 0.0
0001c0 00 00 00 00 00 00 00 00 b5 50 cb 22 a6 41 73 2b
       0.0 0.0 5.5108712e-18 8.642205e-13
0001d0 3d 19 d5 2c 29 c5 30 2e 20 3e 42 2f 6c 54 d9 30
       6.056626e-12 4.019288e-11 1.7666268e-10 1.5812822e-09
0001e0 f8 4d 76 31 71 f7 d4 31 10 94 1f 32 2f 87 74 32
       3.5842032e-09 6.198143e-09 9.288684e-09 1.42334065e-08
0001f0 75 64 c7 32 0d c9 10 33 8b e3 32 33 0d 80 53 33
       2.3212332e-08 3.3710467e-08 4.1650804e-08 4.9243727e-08
000200 3f d5 58 33 99 24 4b 33 78 d7 22 33 42 37 05 33
       5.0485365e-08 4.7297906e-08 3.7914532e-08 3.1016732e-08
000210 b1 58 c3 32 3d ef 4b 32 06 5e da 31 ac 50 30 31
       2.274132e-08 1.1870552e-08 6.3553243e-09 2.5657227e-09
000220 f0 38 6a 30 00 7f d8 2e 1f 0c 1c 2b 00 00 00 00
       8.5209617e-10 9.8451025e-11 5.5439155e-13 0.0
000230 00 00 00 00 00 00 00 00 94 72 92 2b 6e c4 5c 2d
       0.0 0.0 1.0405726e-12 1.2549168e-11
000240 4a 30 26 2e e3 1a 79 2f 35 41 e8 30 e9 8b 88 31
       3.778692e-11 2.265597e-10 1.6898755e-09 3.974027e-09
000250 a2 e8 22 32 a9 02 83 32 df 8b d7 32 30 40 3d 33
       9.482536e-09 1.5251617e-08 2.50929e-08 4.406337e-08
000260 f9 86 84 33 4d 36 ab 33 93 53 d4 33 5d 9e e5 33
       6.1712804e-08 7.972685e-08 9.887221e-08 1.06924496e-07
000270 83 d9 ea 33 49 a8 d9 33 77 2f b9 33 5e a6 8b 33
       1.0936039e-07 1.0135461e-07 8.6233676e-08 6.502954e-08
000280 57 2f 51 33 d0 f2 f9 32 5a 8f 85 32 b8 c6 d7 31
       4.870466e-08 2.9097833e-08 1.5548427e-08 6.2799153e-09
000290 a5 06 f5 30 31 76 7f 2e c5 58 ff 2a e4 c2 33 2c
       1.7827985e-09 5.8085262e-11 4.5358696e-13 2.5545616e-12
0002a0 00 00 00 00 00 00 00 00 68 5b 35 29 ef 13 34 28
       0.0 0.0 4.0269356e-14 9.99633e-15
0002b0 da 7a 20 2f b7 5d ca 30 1c 23 a2 31 7f e1 0f 32
       1.4595561e-10 1.472407e-09 4.718812e-09 8.374967e-09
0002c0 2b 5e 99 32 4c 3c 0b 33 a2 df 5a 33 17 e3 96 33
       1.7854367e-08 3.24183e-08 5.0960473e-08 7.026227e-08
0002d0 3c 39 ba 33 1f 33 ea 33 20 da 03 34 d0 1c 0c 34
       8.671711e-08 1.0905773e-07 1.2279679e-07 1.3048998e-07
0002e0 ed 14 12 34 c9 a2 0c 34 46 c9 fd 33 fb c7 cf 33
       1.3604922e-07 1.3097737e-07 1.1817842e-07 9.675565e-08
0002f0 7f 16 99 33 c7 61 49 33 69 b9 e3 32 aa 9b 39 32
       7.12871e-08 4.6887887e-08 2.6510593e-08 1.0803811e-08
000300 b4 fb 23 31 5e 5c 4b 2f 3d b2 0f 2e f3 80 94 2d
       2.3862698e-09 1.8495558e-10 3.2672743e-11 1.6882917e-11
000310 00 00 00 00 be 0f d3 1f 33 ed 96 2a c7 ab 68 2b
       0.0 8.938802e-20 2.6809943e-13 8.2661346e-13
000320 44 67 2d 2f 8c 44 25 31 53 4f db 31 8a 0e 84 32
       1.5770946e-10 2.4049625e-09 6.382757e-09 1.5373434e-08
000330 ed 52 06 33 1a 8a 58 33 58 32 95 33 fd d7 b5 33
       3.1274727e-08 5.041702e-08 6.947511e-08 8.467757e-08
000340 2f 03 d9 33 27 d0 03 34 94 b6 0a 34 d6 35 0e 34
       1.0105429e-07 1.2276051e-07 1.2918673e-07 1.3244366e-07
000350 2c 7e 10 34 38 8b 12 34 d3 b6 0a 34 b9 33 eb 33
       1.3456946e-07 1.3647957e-07 1.2918763e-07 1.09524485e-07
000360 85 b4 b9 33 47 1d 8e 33 69 4b 28 33 c1 e2 ac 32
       8.64757e-08 6.617716e-08 3.9184133e-08 2.0126551e-08
000370 52 be a5 31 27 e8 bd 30 5d 20 15 2f dd 19 55 29
       4.823769e-09 1.3817542e-09 1.3562969e-10 4.7317934e-14
000380 22 21 16 2e 00 00 00 00 bd 79 3b 2b 38 ea 93 2d
       3.413548e-11 0.0 6.660469e-13 1.681598e-11
000390 1c 84 ab 2f 33 a1 70 31 9e ee 2a 32 14 d4 d8 32
       3.1198588e-10 3.5016228e-09 9.949558e-09 2.5242151e-08
0003a0 ee 4f 42 33 06 00 85 33 0d 55 aa 33 33 db d3 33
       4.524184e-08 6.1932994e-08 7.9317125e-08 9.865325e-08
0003b0 43 80 ef 33 05 3a 06 34 d9 f0 0a 34 04 31 09 34
       1.11526354e-07 1.250083e-07 1.2939871e-07 1.2776951e-07
0003c0 32 7a 09 34 fc 52 0a 34 de d7 04 34 ca d7 ed 33
       1.2803574e-07 1.2882441e-07 1.237199e-07 1.1075424e-07
0003d0 05 30 c3 33 fd fc a3 33 6c 8b 5f 33 8a 38 ef 32
       9.08913e-08 7.636297e-08 5.2048037e-08 2.7848973e-08
0003e0 0c 44 ce 31 ee b6 63 30 55 e7 ea 2e f3 8a 83 2a
       6.003125e-09 8.284208e-10 1.0682181e-10 2.336669e-13
0003f0 00 00 00 00 00 00 00 00 4d 51 4a 2a cb 6d 91 2f
       0.0 0.0 1.7969411e-13 2.645336e-10
