SpikingJelly模板/resume/checkpoint_latest.pth (torch, 95715 bytes, 3 tensors)

1.weight f4 [10, 784]
00000000: 9c2a a6bb ccc4 803c 751d 033d 2078 beba
00000010: 10b0 413b d787 0f3d 9ced d5bb 8ad3 a4bc
00000020: ae48 b9bc 5465 7bbc 7a95 a43c 4a40 e7bc
00000030: 4057 353c 027f c53c 70e2 b9bc 20ac df3a
00000040: de49 96bc 7de1 073d 8016 8039 68e9 08bd
00000050: ee01 c23c 40a0 0bbc ce06 2bbc 0ee4 a8bc
00000060: fb96 0d3d bc03 3f3c b02f 6a3c 13c0 0dbd
00000070: 4eb3 07bc 22a5 ad3c c028 1bba 004c 9ebb
00000080: c023 a33a e8df 5f3c 6e55 c5bc 98e5 a13b
00000090: 91af edbc 6246 0abd 3de4 4cbd 1127 a33c
000000a0: e21d 593c 5c72 223d a36b 34bd 4b16 6a3c
000000b0: 579f e8bc 277f ffbc 9449 e9bb a8ab d23b
000000c0: ab65 0ebd 3d98 203c e466 023a d383 063d
000000d0: 50d6 34bb fe2c f83c aefb d1bc 9332 063d
000000e0: 5a86 eb3c f009 983b f512 a6bc 1e92 273d
000000f0: 45b0 873c 2a32 89bc 9a91 e6bc d0b9 7bbc
00000100: d38a f8bc fc35 89bd 8423 92bd 8cab 9dbc
00000110: 20e8 80bd df6b d3bd b2ea 0abe 361b b0bd
00000120: f12f ecbd d478 2abe e980 17be 41b1 9fbd
00000130: 8bfc 6ebd e676 a1bd c407 51bc 83f6 23bd
00000140: d239 903c 5280 1ebc bab5 d53c 2853 e4bc
00000150: d085 4d3c b87a ba3b 68b6 d5bc f9a1 f4bb
00000160: f509 b7bc c509 e1bc c788 b3bc fa8d 49bd
00000170: 9178 82bd 088b eebd 0138 81bd 6e2d 49bd
00000180: 1850 1dbd 3d60 b3bd 3d27 56bd 805b 58bd
00000190: 5509 6bbd 3100 e8bd 90b4 aabd 5012 d6bd
000001a0: 4397 01be b998 b5bd 3b4f cabd d3d0 11bd
000001b0: 71bb 47bd be5e e5ba 70fd 56bb e0bf d83a
000001c0: 6431 f9bb 0a4e cc3c 707e 7f3c af57 9cbc
000001d0: 5942 8ebb 7f03 2cbd d182 dfbd 28bb c3bd
000001e0: 2143 8fbd cddb 87bc d162 90bd 5dec 1a3b
000001f0: e6ab 99bc 966f 04bd da53 a33c a294 c83c
00000200: 7e32 ea3c a1ec fcbc 7785 cbbc 86c0 e6bc
00000210: 0344 30bc c89b a3bb 997f 15bc cb37 8839
00000220: 97ee 32bd a057 0ebd a061 bbbc 8ecf df3c
00000230: 246c 2f3c ec42 a53c 401f b9bc d250 923c
00000240: e6df 42bd 0909 c0bd 7ce6 3abd e6f5 febc
00000250: 1e52 93bc e1a0 f2bc b5e3 4dbd be57 1e3c
00000260: e326 163c 7046 733c 8039 103d b858 8b3c
00000270: 56ac 9c3d c5e8 e73b 2209 1abc 560f 263c
00000280: 5b50 df3a fb65 00bd 5144 e9bb 66fc 3fbd
00000290: 1b6d 51bd 3b1f f3bd 82cf 88bd d7bc 11bd
000002a0: 26c1 b43c 43c6 01bd 11df 3abd b6a5 36bc
000002b0: ba42 a2bd 7d9b 01bd 962d 01bd 0f79 4cbd
000002c0: 40d5 96bd a872 9bbd be2a 5dbd 179a 063c
000002d0: fa31 513b a27a 6dbc 0bd2 0d3d 22e3 a53c
000002e0: 8c80 8f3d 9052 363d 1e02 ae3c 29b8 4a3d
000002f0: 51d8 b73c ee48 90bc d09f 213c a9ea 16bd
00000300: 9ecb b4bd c39d 00be 8344 aebd 0569 a43b
00000310: 00d3 1f39 a580 933c c8b0 ebbb 782a 8cbc
00000320: 6c5f 4dbd 0d8d 83bd b523 f43b c6cc 1abd
00000330: 4cbe 50bd 08dd c7bc 3581 bbbc 4423 f63b
00000340: dcae 0e3c bbb7 2ebc 2458 c43c 1c8b e03b
00000350: 50f0 4b3d 6313 d93d 85a0 2c3d 5843 c53c
00000360: 9b4d afb9 ca7a ea3c 12e1 50bb 9ec4 8abb
00000370: 74b6 febd 4071 ddbd fae8 b4bd 9f7e 263c
00000380: ceed 213c 6010 5bbb 6183 fabc 90ca d6bc
00000390: 5420 9abd b436 45bd 436f 5fbd 33ff 8ebb
000003a0: fbf8 e5bc 5056 153c 41fe 89bc 0edc d63b
000003b0: 9f70 3c3c d527 40bb 7849 8b3c 17da 8b3d
000003c0: 230e 9f3d 99ae 8d3d da47 2c3d eee6 853d
000003d0: 0571 2b3d bcab 273c 85a0 7d3c 6992 0c3c
000003e0: 7c71 9cbd c354 d8bd 4111 6cbd c1ad 2dbd
000003f0: b0df bb3c 40f0 853b b329 18bc ba39 97bd
-0.0050709974 0.01571884 0.032010514 -0.001453165 0.0029554404 0.035041656 -0.0065285694 -0.020120401
-0.022617664 -0.015343983 0.020090807 -0.028228898 0.011068165 0.024108414 -0.022690982 0.0017064847
-0.01834577 0.033174027 0.00024430826 -0.03342572 0.02368256 -0.008522093 -0.010438634 -0.020616557
0.034567814 0.011658605 0.014293596 -0.034607004 -0.008282496 0.021196906 -0.0005918853 -0.0048308372
0.0012446567 0.013664223 -0.024088588 0.0049407 -0.02901438 -0.03375853 -0.050022352 0.01991609
0.0132517535 0.039659843 -0.044047963 0.014287542 -0.028396292 -0.03118856 -0.007119367 0.0064291544
-0.034764927 0.009801921 0.00049744383 0.03284056 -0.002759356 0.030294891 -0.025632706 0.032763075
0.028750587 0.0046398565 -0.020272711 0.040910833 0.016563544 -0.016747553 -0.0281456 -0.015364125
-0.030339634 -0.0669975 -0.0713568 -0.019246839 -0.06294274 -0.10323309 -0.13566092 -0.0859894
-0.115325816 -0.16647655 -0.14795269 -0.077974804 -0.058346312 -0.07884006 -0.012758199 -0.040030014
0.017605696 -0.009674149 0.02608763 -0.027871683 0.01254411 0.0056908987 -0.026087955 -0.0074655977
-0.022343615 -0.027470479 -0.021915806 -0.049207665 -0.063706525 -0.11647612 -0.0630951 -0.04911559
-0.03840646 -0.0875859 -0.052283514 -0.052821636 -0.057381947 -0.113281615 -0.08335221 -0.104527116
-0.12655358 -0.0886702 -0.09878393 -0.03559954 -0.048762742 -0.0017499549 -0.003280487 0.0016536675
-0.007604765 0.024939556 0.01559411 -0.01908478 -0.0043414054 -0.04199552 -0.10913623 -0.095571816
-0.06995226 -0.016584301 -0.07050098 0.0023639419 -0.018758725 -0.03233298 0.019937444 0.024484936
0.02858853 -0.030874552 -0.024843914 -0.028167974 -0.010758403 -0.004992936 -0.00912466 0.0002598151
-0.04368457 -0.034751534 -0.0228737 0.02732065 0.010706935 0.020173512 -0.022597909 0.017860804
-0.047576807 -0.09376723 -0.045629963 -0.031123113 -0.017983492 -0.029617729 -0.050265986 0.009664474
0.009164545 0.014848337 0.035211086 0.017010078 0.07650058 0.007077309 -0.0094015915 0.010135492
0.0017037498 -0.031347256 -0.0071187397 -0.046871565 -0.05112944 -0.11871191 -0.06680204 -0.035580482
0.022064757 -0.031683218 -0.04562289 -0.011147907 -0.07922883 -0.031642426 -0.031537615 -0.049920138
-0.07364893 -0.07590228 -0.05399584 0.008215449 0.0031920657 -0.01449457 0.03462414 0.020249907
0.0700694 0.04451233 0.021241244 0.049492035 0.022442015 -0.0176129 0.009864762 -0.036844883
-0.088278994 -0.12560181 -0.08509161 0.005017402 0.00015242025 0.018005678 -0.007192705 -0.017110094
-0.05013983 -0.06423388 0.0074505457 -0.037792943 -0.05096273 -0.024397388 -0.02288876 0.007511528
0.008708682 -0.010663922 0.02396781 0.0068525206 0.049789727 0.10599401 0.04214527 0.024079964
-0.00033436422 0.028623004 -0.0031872434 -0.0042348644 -0.12437144 -0.10812616 -0.08833499 0.010162025
0.009883357 -0.0033426508 -0.030580224 -0.026219636 -0.07525697 -0.048147872 -0.054549467 -0.004363918
-0.028072825 0.009114817 -0.01684487 0.0065569943 0.01150146 -0.0029320617 0.017002806 0.06828707
0.07766368 0.069180675 0.04206071 0.06538187 0.04185583 0.010233816 0.015480165 0.008579829
-0.07638833 -0.10563042 -0.057633642 -0.042402033 0.022933811 0.004087478 -0.009287286 -0.07384057

exp_avg f4 [10, 784]
00000000: 0000 0000 0000 0000 0000 0000 0000 0000
00000010: 0000 0000 0000 0000 0000 0000 0000 0000
00000020: 0000 0000 0000 0000 0000 0000 0000 0000
00000030: 0000 0000 0000 0000 0000 0000 0000 0000
00000040: 0000 0000 0000 0000 0000 0000 0000 0000
00000050: 0000 0000 0000 0000 0000 0000 0000 0000
00000060: 0000 0000 0000 0000 0000 0000 0000 0000
00000070: 0000 0000 0000 0000 0000 0000 0000 0000
00000080: 0000 0000 0000 0000 0000 0000 0000 0000
00000090: 0000 0000 efb7 8417 3249 1825 2ad0 ce26
000000a0: 9841 3c26 0400 0080 0f5b 3800 2ce9 e001
000000b0: 245d 3502 dad4 3001 0000 0000 0000 0000
000000c0: 0400 0000 0400 0000 0400 0000 0000 0000
000000d0: 0000 0000 0000 0000 0000 0000 0000 0000
000000e0: 0000 0000 0000 0000 0000 0000 3b51 1700
000000f0: 0400 0080 9728 2414 526a 6422 331f 8322
00000100: c327 372e 1f4e 942e f336 062d e779 e637
00000110: 3a4f 9437 9c38 6e36 4a74 a135 8c60 0935
00000120: d03f ac35 58c6 0837 326c aa36 128a 8135
00000130: e5ea f535 4c86 2935 24c1 f52e 9469 8318
00000140: 9aca 4118 0000 0000 0000 0000 0000 0000
00000150: 0000 0000 0000 0000 0000 0000 07b3 b809
00000160: 4894 8209 8237 1916 704e 6722 f97a d22c
00000170: 31cb 8ab3 f741 71b3 ed5d ac34 f21c 2738
00000180: 156e ce37 3854 fab7 26fe 70b7 dad9 c0b6
00000190: da3d 6137 6d93 0638 4b31 7638 565a ae37
000001a0: cb59 5737 76b1 e537 294e 0638 7bf0 9c36
000001b0: eede a4b2 34f4 cbb1 db8e e704 0000 0000
000001c0: 0000 0000 0000 0000 0000 0000 1c88 e022
000001d0: ed4e 222a ab1b 4b34 9faa b9b7 faa4 e8b8
000001e0: 7503 dab8 35e1 49b8 8c71 dbb8 1254 06b8
000001f0: 5c6d 2ab8 ef8d a0b8 fb93 03b7 f8ab de37
00000200: d60b 3138 28bb 2138 ed61 4f38 604d e237
00000210: 078d 4e38 9867 a834 b663 80b8 5e34 f3b7
00000220: f4c7 40b6 ed80 19b3 e4c3 af29 0000 0000
00000230: 0000 0000 0000 0000 235d 2a2b 5d5c cf23
00000240: 3bc4 392b befe 4435 e2c8 dbb8 769d f0b8
00000250: fed0 f6b8 6e21 f2b8 0907 d9b8 a3e8 5db8
00000260: 8ee4 eeb7 3989 91b7 5f23 ec37 e88f ad38
00000270: 7fb1 9a38 2f16 2f38 75c5 c236 de71 44b7
00000280: 543b 1cb8 4a16 81b8 8901 67b8 5eaf 2ab8
00000290: 2075 b6b6 e5ef 3e37 d018 f536 3264 cf0c
000002a0: 0000 0000 0000 0000 2699 902b fdf4 4300
000002b0: f2be beb2 1163 84b5 6d94 f0b8 19da 0fb9
000002c0: fd13 0ab9 1953 cab8 5476 aab8 4b91 5d36
000002d0: 00f1 9f37 dd99 1db8 6e5c 75b8 eb7c 8bb8
000002e0: 2667 2437 3448 5138 150a 16b8 c55e 85b8
000002f0: 12f0 b2b8 f2c5 34b9 4bc5 85b9 f0ee 82b9
00000300: 40e8 0ab9 135e 0238 ab12 c136 e6bb 9a0d
00000310: 0000 0000 345e 1984 f864 b600 71ed 1420
00000320: 42ba 0c35 4b0d 23b8 df39 fcb8 acc6 0fb9
00000330: 12d8 04b9 54fb 0ab9 2571 c4b8 2273 6638
00000340: 6c66 0b39 8b00 4137 e28d c1b8 75fb d9b8
00000350: dbcb 45b8 fe14 66b8 22f7 74b8 7634 0fb9
00000360: 75ab 6fb9 d171 80b9 e400 4fb9 2d82 feb8
00000370: a4a9 16b9 e596 0338 52c4 c231 6ca3 a819
00000380: e4d0 b2b4 0000 0000 3614 c4ad 9dc0 24ae
00000390: 41fb 7536 531a c0b7 e128 d8b8 0efc fcb8
000003a0: 6ec2 1ab9 4397 eab8 b5d3 1d38 bd52 3739
000003b0: 5368 d538 9245 4938 ca28 ba37 0e1a d235
000003c0: 2592 eab8 d305 c3b8 323f 4fb8 9eae 52b9
000003d0: 77dc 85b9 4112 1bb9 a9ad 21b9 b2be ddb8
000003e0: c8bd 5e38 4980 7637 32d4 e432 9b23 1b1a
000003f0: 0000 0000 0000 0000 9e18 48b0 9ebc f035
0.0 0.0 0.0 0.0 0.0 0.0 0.0 0.0
0.0 0.0 0.0 0.0 0.0 0.0 0.0 0.0
0.0 0.0 0.0 0.0 0.0 0.0 0.0 0.0
0.0 0.0 0.0 0.0 0.0 0.0 0.0 0.0
0.0 0.0 0.0 0.0 0.0 8.576731e-25 1.3208698e-16 1.4350544e-15
6.53145e-16 -6e-45 5.175453e-39 8.261919e-38 1.332451e-37 3.2478808e-38 0.0 0.0
6e-45 6e-45 6e-45 0.0 0.0 0.0 0.0 0.0
0.0 0.0 0.0 2.141356e-39 -6e-45 8.287889e-27 3.0956047e-18 3.5540655e-18
4.1644698e-11 6.744138e-11 7.629219e-12 2.7474902e-05 1.7679868e-05 3.5497715e-06 1.2029279e-06 5.117697e-07
1.283357e-06 8.152412e-06 5.0789904e-06 9.651433e-07 1.8322286e-06 6.3152834e-07 1.1175619e-10 3.3969313e-24
2.5046953e-24 0.0 0.0 0.0 0.0 0.0 0.0 4.4464745e-33
3.1435805e-33 1.2376757e-25 3.1347862e-18 5.9822117e-12 -6.463086e-08 -5.617218e-08 3.2105837e-07 3.984286e-05
2.4608375e-05 -2.984154e-05 -1.4364288e-05 -5.747407e-06 1.3425446e-05 3.208539e-05 5.8696878e-05 2.0784482e-05
1.2835905e-05 2.7381564e-05 3.2020882e-05 4.677158e-06 -1.919349e-08 -5.9358403e-09 5.443903e-36 0.0
0.0 0.0 0.0 6.0859433e-18 1.4415873e-13 1.8915914e-07 -2.213317e-05 -0.00011093351
-0.00010395694 -4.8131875e-05 -0.000104638835 -3.2026386e-05 -4.0633007e-05 -7.655832e-05 -7.842663e-06 2.6544541e-05
4.221111e-05 3.8559694e-05 4.9443846e-05 2.697733e-05 4.924557e-05 3.1367813e-07 -6.122088e-05 -2.8992243e-05
-2.8726618e-06 -3.5740346e-08 7.805543e-14 0.0 0.0 0.0 6.0525386e-13 2.2482102e-17
6.599753e-13 7.338639e-07 -0.00010480151 -0.00011473421 -0.00011769122 -0.00011545686 -0.00010348677 -5.2907166e-05
-2.847824e-05 -1.7349246e-05 2.8149863e-05 8.2760875e-05 7.3763535e-05 4.174391e-05 5.8046376e-06 -1.1709022e-05
-3.7248552e-05 -6.155351e-05 -5.507612e-05 -4.0694482e-05 -5.437658e-06 1.1380737e-05 7.3044575e-06 3.1953703e-31
0.0 0.0 1.0274323e-12 6.240863e-39 -2.2205743e-08 -9.863599e-07 -0.00011471738 -0.0001371879
-0.00013168152 -9.647589e-05 -8.128272e-05 3.3016138e-06 1.9066501e-05 -3.7575013e-05 -5.8498634e-05 -6.651304e-05
9.799178e-06 4.9896727e-05 -3.5772176e-05 -6.3595864e-05 -8.532418e-05 -0.00017239878 -0.00025514732 -0.00024973555
-0.00013247225 3.108203e-05 5.7540215e-06 9.536218e-31 0.0 -1.802832e-36 1.6750281e-38 1.261465e-19
5.2425105e-07 -3.887461e-05 -0.00012027076 -0.00013711554 -0.00012668993 -0.00013254333 -9.367083e-05 5.49435e-05
0.00013294228 1.1503823e-05 -9.229385e-05 -0.00010394204 -4.7158315e-05 -5.4855824e-05 -5.8404294e-05 -0.00013657086
-0.00022856689 -0.00024498862 -0.0001974139 -0.00012135911 -0.00014368311 3.1373365e-05 5.668462e-09 1.7436798e-23
-3.3307072e-07 0.0 -2.2291596e-11 -3.7460358e-11 3.6654094e-06 -2.2900442e-05 -0.00010307297 -0.00012063245
-0.00014759015 -0.00011186164 3.7628884e-05 0.00017483062 0.000101760634 4.7986927e-05 2.2191922e-05 1.5653802e-06
-0.00011185211 -9.2994094e-05 -4.94115e-05 -0.0002009221 -0.00025531996 -0.00014788752 -0.0001541885 -0.00010573621
5.3105672e-05 1.4692611e-05 2.6639189e-08 3.208201e-23 0.0 0.0 -7.279456e-10 1.7936288e-06

exp_avg_sq f4 [10, 784]
00000000: 0000 0000 0000 0000 0000 0000 0000 0000
00000010: 0000 0000 0000 0000 0000 0000 0000 0000
00000020: 0000 0000 0000 0000 0000 0000 0000 0000
00000030: 0000 0000 0000 0000 0000 0000 0000 0000
00000040: 0000 0000 0000 0000 0000 0000 0000 0000
00000050: 0000 0000 0000 0000 0000 0000 0000 0000
00000060: 0000 0000 0000 0000 0000 0000 0000 0000
00000070: 0000 0000 0000 0000 0000 0000 0000 0000
00000080: 0000 0000 0000 0000 0000 0000 0000 0000
00000090: 0000 0000 b3a5 6a28 8cfe 972c 5eed d82e
000000a0: 8687 da2f 97b0 b72e b8ca a928 6828 762d
000000b0: 7fb4 e02e 56b8 ab2d 0000 0000 0000 0000
000000c0: 7db1 702b 9b02 b52e 03d8 c62d 0000 0000
000000d0: 0000 0000 0000 0000 0000 0000 0000 0000
000000e0: 0000 0000 0000 0000 0000 0000 809f 0b2c
000000f0: 84c2 052a 8805 db26 fda6 cc2e 6a64 0e2f
00000100: 49c9 e82d b4ef 4f2f afb6 af2f d9e5 d92f
00000110: 9fc3 4d30 42ce 9730 49ce ba30 ddcc de30
00000120: 9661 4431 84a3 0e31 8bf6 a930 4a76 6730
00000130: 4d90 4830 3217 b42f 0493 2e2f 5de1 8e2e
00000140: df24 b52d 0000 0000 0000 0000 0000 0000
00000150: 0000 0000 0000 0000 0000 0000 8863 842d
00000160: f6cc 362c 7ce1 222f 772a 782f 8b80 b32f
00000170: cfbb 8130 db73 0a31 6c9c 8031 6593 f531
00000180: 347e 3132 6b2a 7732 5d67 8f32 ae7c a332
00000190: e9d0 cb32 b6fc a832 78cb 8532 35cb 6f32
000001a0: 6a5e 2b32 f530 d831 fce7 3531 702c 1a30
000001b0: 3c56 952f 5487 bc2e 1f87 1c2d 0000 0000
000001c0: 0000 0000 0000 0000 0000 0000 6f6a 972d
000001d0: 90f7 102d e12e a82f 03ac 8f30 bf5c a231
000001e0: b79b 0f32 3516 8332 51bd f232 a6d4 3033
000001f0: f59b 7633 d744 b433 79ce f433 5768 0e34
00000200: 6e9a 0734 d382 f433 4cd4 c033 b2e1 8e33
00000210: 48a9 3833 ff7f de32 ad34 7532 6adf c131
00000220: e811 c530 cefb 8c2f 9645 6b2e 0000 0000
00000230: 0000 0000 0000 0000 bb7a 002d 0661 e52d
00000240: 1073 1f2f 6d7f 8330 6c0c e831 f260 4d32
00000250: 536d cc32 3d4b 2933 3761 9133 d2e3 ef33
00000260: ea9e 2934 0856 6e34 c378 9e34 8343 af34
00000270: 2da6 b634 3625 aa34 7830 8934 57a6 4234
00000280: 8228 ea33 150b 8633 1ac5 1033 f437 8e32
00000290: 9ac4 a331 efa3 b02f 5e58 c82e 47bc 352d
000002a0: 0000 0000 0000 0000 b3b1 532b cec1 1d2c
000002b0: 1ff0 b72f 3118 5631 0d1f 4c32 b38e c832
000002c0: 5e96 2d33 ccb2 9b33 3cca 0b34 904d 5434
000002d0: 73e4 8434 64b8 b134 1854 d634 dd56 ef34
000002e0: ab26 fd34 0238 f134 f1c9 ce34 1c77 9234
000002f0: a4b6 4c34 e2ba e633 783c 8533 07ba 0033
00000300: 97a3 f631 c75b 8130 6f99 9b2f 2d88 bf2e
00000310: 0000 0000 9bf7 ef25 35e9 d72d d635 672e
00000320: 6efa 2d30 052b aa31 f29b 8732 214a 1433
00000330: 529a 8733 8fbc fa33 e39e 5a34 fc52 9234
00000340: 8205 b734 e1fd d934 47f2 e834 855a ef34
00000350: 9604 f334 33c0 0235 cea8 f534 0fdd b934
00000360: 352f 8a34 fe79 3334 1f1b c933 a056 3633
00000370: d0c8 6232 bc63 5131 0d20 a92f 1439 3b2e
00000380: 2e50 842e 0000 0000 6a86 5e2d 682c 682f
00000390: 00b6 b630 366b 0332 2182 b932 1633 5d33
000003a0: 2dd0 e833 1ea3 3a34 ecdc 8834 eca9 a934
000003b0: a7d6 c634 cb93 ce34 252e d134 f61b c834
000003c0: 3833 c334 a4b2 c534 c0b6 d734 df10 bd34
000003d0: f71d a134 1836 6134 3a8d 0334 6878 7633
000003e0: 4325 8932 d8d4 6e31 efbf dc2f 7230 8d2e
000003f0: 0000 0000 0000 0000 b434 1e2e 6718 7b30
0.0 0.0 0.0 0.0 0.0 0.0 0.0 0.0
0.0 0.0 0.0 0.0 0.0 0.0 0.0 0.0
0.0 0.0 0.0 0.0 0.0 0.0 0.0 0.0
0.0 0.0 0.0 0.0 0.0 0.0 0.0 0.0
0.0 0.0 0.0 0.0 0.0 1.302554e-14 4.3199385e-12 9.864708e-11
3.9750264e-10 8.353245e-11 1.8850684e-14 1.3992453e-11 1.0218403e-10 1.952231e-11 0.0 0.0
8.5511443e-13 8.23139e-11 2.2605922e-11 0.0 0.0 0.0 0.0 0.0
0.0 0.0 0.0 1.9841628e-12 1.1880259e-13 1.5197677e-15 9.306509e-11 1.2950499e-10
2.6464735e-11 1.89117e-10 3.196212e-10 3.9635387e-10 7.485656e-10 1.1045318e-09 1.3591911e-09 1.6210852e-09
2.8577225e-09 2.0756667e-09 1.236644e-09 8.420541e-10 7.296464e-10 3.275829e-10 1.5877438e-10 6.497445e-11
2.0593692e-11 0.0 0.0 0.0 0.0 0.0 0.0 1.5050863e-11
2.5977532e-12 1.4813922e-10 2.2570555e-10 3.2651246e-10 9.439364e-10 2.01475e-09 3.7430734e-09 7.1471953e-09
1.0331451e-08 1.4386937e-08 1.6694395e-08 1.9032395e-08 2.3727312e-08 1.9672694e-08 1.5575765e-08 1.3957835e-08
9.974977e-09 6.291993e-09 2.6470834e-09 5.6088023e-10 2.7164215e-10 8.573289e-11 8.897576e-12 0.0
0.0 0.0 0.0 1.7213979e-11 8.240422e-12 3.0592331e-10 1.0453508e-09 4.7253645e-09
8.359101e-09 1.5260506e-08 2.8258599e-08 4.1171596e-08 5.741818e-08 8.394425e-08 1.13996926e-07 1.3262739e-07
1.2629036e-07 1.1385932e-07 8.979313e-08 6.653444e-08 4.29948e-08 2.5902407e-08 1.4272854e-08 5.6424385e-09
1.4338726e-09 2.564477e-10 5.349462e-11 0.0 0.0 0.0 7.303209e-12 2.6077373e-11
1.4501844e-10 9.567721e-10 6.753501e-09 1.1954613e-08 2.379844e-08 3.9416808e-08 6.769772e-08 1.1170745e-07
1.5797164e-07 2.2196775e-07 2.951766e-07 3.264541e-07 3.402105e-07 3.1692042e-07 2.5553504e-07 1.8128172e-07
1.09038425e-07 6.241877e-08 3.3706876e-08 1.655642e-08 4.7662754e-09 3.2130695e-10 9.110644e-11 1.0330465e-11
0.0 0.0 7.5208866e-13 2.2418625e-12 3.3458122e-10 3.115485e-09 1.1881423e-08 2.3347956e-08
4.041646e-08 7.250273e-08 1.3018956e-07 1.9772256e-07 2.4753135e-07 3.310298e-07 3.9921792e-07 4.458042e-07
4.7153057e-07 4.49305e-07 3.8517422e-07 2.7281283e-07 1.9065425e-07 1.07442034e-07 6.204294e-08 2.9971513e-08
7.1781403e-09 9.41207e-10 2.8303357e-10 8.709864e-11 0.0 4.1627675e-16 2.4546235e-11 5.2571135e-11
6.3292915e-10 4.952542e-09 1.5786984e-08 3.4526355e-08 6.314498e-08 1.1675831e-07 2.0360635e-07 2.7254998e-07
3.4090414e-07 4.060412e-07 4.3389647e-07 4.458308e-07 4.5265614e-07 4.870846e-07 4.5757628e-07 3.4619777e-07
2.573885e-07 1.6715055e-07 9.364725e-08 4.2453962e-08 1.3200591e-08 3.0470195e-09 3.0763694e-10 4.2569573e-11
6.016908e-11 0.0 1.2649085e-11 2.1116053e-10 1.329397e-09 7.6495805e-09 2.159601e-08 5.1502035e-08
1.0841209e-07 1.7381942e-07 2.5492716e-07 3.1602337e-07 3.7036554e-07 3.8478024e-07 3.8962858e-07 3.7273247e-07
3.6358847e-07 3.6824088e-07 4.017984e-07 3.521627e-07 3.001039e-07 2.0974437e-07 1.2251704e-07 5.7385847e-08
1.5965844e-08 3.4754546e-09 4.0154144e-10 6.420543e-11 0.0 0.0 3.597185e-11 9.1347946e-10
